…
lnet-canny'} were passed to ControlNetCLIPModel, but are not expected and will be ignored. Please verify your config.json configuration file.
==================================================================================================================================
Layer (type:depth-idx)                                                           Output Shape              Param #
==================================================================================================================================
ControlNetCLIPModel                                                              [2, 1280, 8, 8]           --
├─Timesteps: 1-1                                                                 [2, 320]                  --
├─TimestepEmbedding: 1-2                                                         [2, 1280]                 1,639,680
│    └─LoRACompatibleLinear: 2-1                                                 [2, 1280]                 410,880
├─UNetMidBlock2DCrossAttn: 1-54                                                  --                        (recursive)
│    └─ModuleList: 2-61                                                          --                        (recursive)
│    │    └─ResnetBlock2D: 3-77                                                  --                        (recursive)
├─TimestepEmbedding: 1-4                                                         --                        (recursive)
│    └─LoRACompatibleLinear: 2-3                                                 [2, 1280]                 1,639,680
├─Conv2d: 1-5                                                                    [2, 320, 64, 64]          11,840
├─ControlNetConditioningEmbedding: 1-6                                           [2, 320, 64, 64]          --
│    └─Conv2d: 2-4                                                               [2, 16, 512, 512]         448
│    └─ModuleList: 2-5                                                           --                        --
│    │    └─Conv2d: 3-2                                                          [2, 16, 512, 512]         2,320
│    │    └─Conv2d: 3-3                                                          [2, 32, 256, 256]         4,640
│    │    └─Conv2d: 3-4                                                          [2, 32, 256, 256]         9,248
│    │    └─Conv2d: 3-5                                                          [2, 96, 128, 128]         27,744
│    │    └─Conv2d: 3-6                                                          [2, 96, 128, 128]         83,040
│    │    └─Conv2d: 3-7                                                          [2, 256, 64, 64]          221,440
│    └─Conv2d: 2-6                                                               [2, 320, 64, 64]          737,600
├─ModuleList: 1-55                                                               --                        (recursive)
│    └─CrossAttnDownBlock2D: 2-7                                                 [2, 320, 32, 32]          8,269,440
│    │    └─ModuleList: 3-22                                                     --                        (recursive)
├─UNetMidBlock2DCrossAttn: 1-54                                                  --                        (recursive)
│    └─ModuleList: 2-61                                                          --                        (recursive)
│    │    └─ResnetBlock2D: 3-77                                                  --                        (recursive)
…
│    │    └─ResnetBlock2D: 3-77                                                  --                        (recursive)
│    │    └─ResnetBlock2D: 3-78                                                  --                        (recursive)
│    │    └─ResnetBlock2D: 3-77                                                  --                        (recursive)
│    │    └─ResnetBlock2D: 3-78                                                  --                        (recursive)
│    └─ModuleList: 2-60                                                          --                        --
│    │    └─Transformer2DModel: 3-79                                             [2, 1280, 8, 8]           34,760,960
│    └─ModuleList: 2-61                                                          --                        (recursive)
│    │    └─ResnetBlock2D: 3-80                                                  [2, 1280, 8, 8]           31,138,560
├─ModuleList: 1-57                                                               --                        --
│    └─Conv2d: 2-62                                                              [2, 320, 64, 64]          102,720
│    └─Conv2d: 2-63                                                              [2, 320, 64, 64]          102,720
│    └─Conv2d: 2-64                                                              [2, 320, 64, 64]          102,720
│    └─Conv2d: 2-65                                                              [2, 320, 32, 32]          102,720
│    └─Conv2d: 2-66                                                              [2, 640, 32, 32]          410,240
│    └─Conv2d: 2-67                                                              [2, 640, 32, 32]          410,240
│    └─Conv2d: 2-68                                                              [2, 640, 16, 16]          410,240
│    └─Conv2d: 2-69                                                              [2, 1280, 16, 16]         1,639,680
│    └─Conv2d: 2-70                                                              [2, 1280, 16, 16]         1,639,680
│    └─Conv2d: 2-71                                                              [2, 1280, 8, 8]           1,639,680
│    └─Conv2d: 2-72                                                              [2, 1280, 8, 8]           1,639,680
│    └─Conv2d: 2-73                                                              [2, 1280, 8, 8]           1,639,680
├─Conv2d: 1-58                                                                   [2, 1280, 8, 8]           1,639,680
==================================================================================================================================
Total params: 716,383,760
Trainable params: 716,383,760
Non-trainable params: 0
Total mult-adds (Units.GIGABYTES): 137.43
==================================================================================================================================
Input size (MB): 6.90
…
